net_parameter.pkl (torch_old, 906 bytes, 3 tensors)

0.weight f4 [10, 1]
0	0x3ea3d00c	0.31994665
1	0x3f272354	0.6528828
2	0x3ea57376	0.32314652
3	0xbec6d1b7	-0.38831875
4	0x3dcd3c98	0.10021323
5	0xbd005b94	-0.031337336
6	0x3d6eb8c0	0.05828166
7	0xbe2bdd41	-0.1678362
8	0xbe0bec70	-0.13664412
9	0xbf1d5216	-0.6145338

0.bias f4 [10]
0	0xbf022d0c	-0.50849986
1	0xbf3fac7a	-0.74872553
2	0x3f2f1ef7	0.68406624
3	0x3f61603f	0.88037485
4	0xbdcd63da	-0.10028811
5	0x3d159df7	0.0365276
6	0xbe8ca560	-0.2746992
7	0xbe2c0a81	-0.16800882
8	0xbf7eee82	-0.99582684
9	0xbf453f7c	-0.77049994

2.weight f4 [1, 10]
0	0xbb85dc00	-0.004085064
1	0xbe3a72f2	-0.1820791
2	0x3e774904	0.24148947
3	0x3e5af94d	0.21384163
4	0xbcefa08d	-0.029251361
5	0xbdd2c44d	-0.10291348
6	0xbd23beb0	-0.039976776
7	0xbd69173b	-0.05690692
8	0x3e812671	0.2522464
9	0x39d7a400	0.00041130185
